mnist_model.pt (torch, 74191 bytes, 8 tensors)

conv1.weight f4 [10, 1, 3, 3]
0	0x3d5aad8b	0.05338816
1	0x3cdbf44a	0.026849885
2	0xbd8e54cd	-0.06949768
3	0x3e207199	0.15668334
4	0xbd4dcfe1	-0.050247077
5	0x3e6d43a3	0.23170333
6	0x3db19690	0.08671296
7	0x3e8b4089	0.27197674
8	0x3e2c8d58	0.16850793
9	0xbd90a328	-0.070623696
10	0x3d6e1d49	0.058133397
11	0xbb25d8d9	-0.0025306253
12	0x3da5967b	0.080853425
13	0xbe0b5bc1	-0.1360922
14	0xbc1cd304	-0.009571794
15	0xbd61346c	-0.054981634
16	0x3d0e13b9	0.034686778
17	0xbbf493bb	-0.0074639
18	0x3e550e1a	0.2080616
19	0x3e590cbe	0.21196267
20	0x3e478a14	0.19486266
21	0xbe628392	-0.22120503
22	0x3dba7054	0.09103456
23	0xbad97631	-0.001659101
24	0xbea5d1a3	-0.32386503
25	0xbe911211	-0.28334096
26	0x3cb896f8	0.022532925
27	0x3e2c3877	0.16818415
28	0xbe0efc82	-0.13963512
29	0x3e23fbfa	0.1601409
30	0x3e817c9e	0.25290388
31	0x3e8fc0c0	0.28076744
32	0x3e8e87d2	0.27837998
33	0xbc848679	-0.016177403
34	0xbe1eaff2	-0.15496805
35	0xbc130b53	-0.008974868
36	0x3e94e35d	0.29079714
37	0x3cce079f	0.025150118
38	0x3d677584	0.056508556
39	0xbcd845ae	-0.026400413
40	0x3eba26d3	0.36357746
41	0x3b1c3be2	0.0023839404
42	0x3e69d6c7	0.22835837
43	0x3dd0acd3	0.101892136
44	0xbcc76f63	-0.024345106
45	0x3e630356	0.22169241
46	0xbca793a8	-0.02045615
47	0x3ed0916c	0.40735948
48	0xbe16a7a4	-0.14712387
49	0x3d8fc8b7	0.07020705
50	0xbe2611c4	-0.16217715
51	0xbede0ed5	-0.4337069
52	0xbe2dbbc3	-0.16966157
53	0xbea5db02	-0.32393652
54	0x3e0c705a	0.13714734
55	0x3eb34021	0.35009864
56	0x3de3e409	0.11127479
57	0xbdda162e	-0.10648762
58	0x3e052172	0.1300104
59	0x3dba405d	0.090943076
60	0xbd05a483	-0.032627594
61	0x3e1fc09a	0.15600815
62	0x3e6f85a2	0.2339082
63	0x3e92c566	0.28666228
64	0x3d6e51ca	0.05818347
65	0x3bcba7df	0.00621508
66	0x3e16fd4e	0.14745066
67	0x3e3e700e	0.18597433
68	0xbdb8bdfe	-0.09020613
69	0x3be7f2ea	0.007078518
70	0x3e83c120	0.2573328
71	0x3d055e86	0.032560848
72	0x3e0fefa9	0.14056267
73	0x3dd87324	0.10568836
74	0x3dc604a1	0.09668852
75	0x3df180c4	0.11792138
76	0x3e1ac5b5	0.15114482
77	0x3e4e28c7	0.20132743
78	0xbe2e8aa8	-0.1704508
79	0x3e9b5377	0.30337116
80	0xbdc390d3	-0.095491074
81	0xbe7cad7a	-0.24675551
82	0xbd8330de	-0.06405805
83	0x3cceb49b	0.025232604
84	0x3e39e42d	0.18153448
85	0xbe714e1b	-0.23564951
86	0x3d363d11	0.04449183
87	0x3e243945	0.16037472
88	0x3d53aef3	0.051680516
89	0x3ee0a278	0.43873954

conv1.bias f4 [10]
0	0x3ead4694	0.3384291
1	0xbe8e99a3	-0.2785159
2	0xbe9573e5	-0.29189983
3	0x3e924638	0.28569198
4	0xbe34efd8	-0.17669618
5	0xbdc83531	-0.097757705
6	0x3b04d17f	0.002026647
7	0x3da8e976	0.08247654
8	0xbdc47668	-0.09592897
9	0x3e178e82	0.14800456

conv2.weight f4 [8, 10, 3, 3]
0	0xbe4484dc	-0.19191307
1	0xbe12076e	-0.14260647
2	0x3ce1c9f6	0.027562123
3	0x3db6f0be	0.08932637
4	0x3d72e622	0.059301503
5	0x3c1bf281	0.009518267
6	0x3d847e49	0.064693995
7	0x3d0b381d	0.03398906
8	0x3d92da37	0.071705274
9	0x3ca8373f	0.020534156
10	0x3d062aa6	0.032755516
11	0x3d9c00a6	0.07617311
12	0x3dc4a730	0.09602201
13	0xbd9585c1	-0.07300902
14	0x3c3e960b	0.011632453
15	0x3d9f3fc3	0.077758335
16	0x3d9c4345	0.07630018
17	0x3d82f445	0.06394247
18	0xbd152428	-0.036411434
19	0xbceea7d2	-0.029132757
20	0xbe2cad3a	-0.16862956
21	0xbe3b6783	-0.18301205
22	0x3df8b13e	0.12143181
23	0xbd184305	-0.03717329
24	0x3e0dcd2f	0.13847803
25	0x3ddc6150	0.107607484
26	0xbe26434c	-0.16236609
27	0xbe9419ce	-0.28925937
28	0xbdddf98c	-0.10838613
29	0xbd17075f	-0.036872264
30	0xbcbfa64a	-0.023394722
31	0x3d2934b3	0.041310024
32	0x3d95622f	0.07294118
33	0x3e1797be	0.14803979
34	0x3d93bdbd	0.07213924
35	0x3cf86af1	0.030324431
36	0xbe4e49eb	-0.20145385
37	0xbe06a7e9	-0.1314999
38	0xbde6648d	-0.11249647
39	0x3d1478cf	0.036248025
40	0xbb8d0754	-0.004303852
41	0x3d649507	0.055806186
42	0x3dafd264	0.08585051
43	0x3d93abb0	0.07210481
44	0x3e04904c	0.1294567
45	0x3d8c4f79	0.06851096
46	0xbd6ef546	-0.05833938
47	0xbdc3aa95	-0.0955402
48	0xbc45fb95	-0.012083908
49	0xbd2b9f3c	-0.041899905
50	0xbdd20e64	-0.10256651
51	0x3e1a22d7	0.15052353
52	0xbd534d56	-0.051587425
53	0xbd7b8602	-0.061407097
54	0xbe69325f	-0.22773121
55	0xbe2e0f58	-0.1699804
56	0xbd297177	-0.041367974
57	0x3d715af2	0.058924623
58	0x3ccd02a5	0.025025675
59	0x3d3ddafc	0.046351418
60	0x3d6370a3	0.05552734
61	0x3de7befe	0.11315726
62	0x3d8e512d	0.06949077
63	0xbe03acdf	-0.12858914
64	0xbe31f6fa	-0.1737937
65	0xbde24691	-0.11048616
66	0x3cbcda5b	0.023053339
67	0x3d53322c	0.05156152
68	0x3cf7183f	0.030162929
69	0x3dc68ff2	0.09695424
70	0x3d13d33e	0.036090128
71	0x3e1439d3	0.14475183
72	0xbeb51ade	-0.3537206
73	0xbe6b37fd	-0.22970577
74	0xbd2ce293	-0.042208266
75	0x3da6909a	0.08133049
76	0x3cdedd39	0.027205097
77	0x3d3fe36c	0.046847746
78	0x3d18f01b	0.037338357
79	0x3e0c3a7a	0.13694182
80	0x3da762d2	0.08173145
81	0xbd46f647	-0.048574712
82	0xbe1adf8e	-0.15124342
83	0x3c91ecdf	0.017813144
84	0x3dc271f6	0.094943926
85	0x3e0c34e8	0.13692057
86	0x3cd9d0a5	0.026588747
87	0x3cb450fd	0.022011274
88	0x3ddabee6	0.10680942
89	0xbc689595	-0.014195819
90	0x3def2f39	0.11678929
91	0x3d92a947	0.07161193
92	0xbdd74cb1	-0.105126746
93	0x3d0ba094	0.034088686
94	0x3da69906	0.08134656
95	0xbe03857d	-0.1284389
96	0x3dca37e1	0.09873939
97	0xbcfc0dd7	-0.030768318
98	0xbd509812	-0.050926276
99	0xbd97c2e5	-0.0741022
100	0x3cc8a93b	0.024494758
101	0xbd96b8d0	-0.07359469
102	0x3db99674	0.090619
103	0xbd132bd2	-0.035930462
104	0x3d8540f3	0.06506529
105	0x3c0b8f73	0.008518088
106	0xbbb51646	-0.005526337
107	0xbbaef8f5	-0.0053397366
108	0x3dfa5136	0.12222521
109	0xbe8c7f04	-0.27440655
110	0x3cd6b8be	0.026211139
111	0xbe025402	-0.12727359
112	0xbe8fa0a7	-0.28052256
113	0x3e5c6840	0.21524143
114	0xbdbd04cc	-0.092294306
115	0x3bf40db3	0.007447922
116	0xbd560dbb	-0.05225919
117	0x3be67bc4	0.007033797
118	0x3d37a5d0	0.044835865
119	0xbc495d5a	-0.012290323
120	0xbd383138	-0.044968814
121	0x3e2a6c75	0.16642936
122	0xbe13283d	-0.14370818
123	0x3d38d0cb	0.045120995
124	0x3d8f23ed	0.06989274
125	0xbe0181d5	-0.12647183
126	0xbd498512	-0.04919917
127	0x3e02c9ec	0.1277234
128	0xbd5b154d	-0.05348711
129	0x3dba7256	0.09103839
130	0x3db0fd91	0.08642114
131	0xbe329e83	-0.1744328
132	0x3def1747	0.11674362
133	0xbce36ad4	-0.0277609
134	0xbda08ca3	-0.07839324
135	0xbe4233bd	-0.18965049
136	0xbe748cb2	-0.23881796
137	0x3e066932	0.13126066
138	0xbee049f5	-0.43806425
139	0x3d1a179e	0.03762018
140	0x3dff5a59	0.12468404
141	0xbe2f76dc	-0.17135185
142	0x3d9a3b16	0.07530801
143	0xbdbe8dd7	-0.093043976
144	0x3ccd9c9c	0.025099091
145	0x3dde3de8	0.108516514
146	0xbd9fe222	-0.07806803
147	0x3e00e2e5	0.12586553
148	0xbd474926	-0.048653744
149	0xbd258181	-0.040406708
150	0x3df70647	0.12061744
151	0xbe0f2446	-0.13978681
152	0xbccb1041	-0.024788024
153	0xbd270696	-0.040777765
154	0x3e191be6	0.14952049
155	0xbd82aaa2	-0.06380202
156	0x3d6a08bf	0.057137247
157	0x3e093692	0.13399723
158	0xbe144605	-0.14479835
159	0x3d941ffa	0.072326615
160	0x3d1f8d02	0.038952835
161	0xbe13de1f	-0.14440201
162	0x3a269711	0.0006354908
163	0x3e0c5893	0.13705663
164	0xbdd822ce	-0.105535135
165	0x3d6cd8b8	0.057823867
166	0x3daa65af	0.08320176
167	0xbe35b4c6	-0.17744741
168	0x3e2eb8c5	0.17062671
169	0xbdef081b	-0.11671468
170	0xbcc6b09c	-0.024254136
171	0x3e84247a	0.2580908
172	0xbd566c61	-0.052349452
173	0xbe4fb1ac	-0.2028262
174	0x3e5bd4eb	0.2146794
175	0xbe75c8b4	-0.24002343
176	0xbc4c2850	-0.012460783
177	0x3d99bb70	0.07506454
178	0xbddff53e	-0.10935448
179	0x3c7c6622	0.01540521
180	0x3de160f5	0.11004821
181	0x3ddec19e	0.10876773
182	0x3e2af38e	0.16694471
183	0xbb2479f1	-0.0025097097
184	0xbe36401d	-0.17797895
185	0xbe4d76e1	-0.2006488
186	0xbe1e2ffa	-0.15447989
187	0xbdab2d7a	-0.08358283
188	0xbbc926ea	-0.006138672
189	0x3cabef41	0.020988109
190	0x3b1021d6	0.0021992824
191	0xbd831e38	-0.06402248
192	0x3d7ad87f	0.061241623
193	0x3d69ad96	0.05705031
194	0x3c0d908e	0.008640422
195	0xbd6f7c19	-0.058467958
196	0xbd338477	-0.0438275
197	0x3a5a22e5	0.000832124
198	0xbda84338	-0.08215946
199	0x3d44230d	0.04788499
200	0xbcaa1c2a	-0.020765383
201	0x3dc32d8a	0.0953017
202	0x3dc1d6f7	0.094648294
203	0x3db503ba	0.088386014
204	0x3bbb3244	0.0057127792
205	0xbd8f432d	-0.06995235
206	0xbe49a690	-0.19692445
207	0x3db3499d	0.08754275
208	0xbd25d38b	-0.040484946
209	0x3e475ee5	0.19469793
210	0x3d84a087	0.06475931
211	0x3cf7d27c	0.030251734
212	0xbb1d587c	-0.002400904
213	0xbe331a03	-0.17490391
214	0xbe3e0284	-0.18555647
215	0xbe7a1e92	-0.24425724
216	0x3d05f5ad	0.032704998
217	0x3d964a88	0.073384345
218	0x3df0dd43	0.11760952
219	0x3cb25418	0.021768615
220	0x3d105ffa	0.03524778
221	0xbcf0cbe4	-0.029394098
222	0xbdf81a97	-0.121144466
223	0xbe79a0bc	-0.24377722
224	0xbe240e38	-0.16021049
225	0x3d88c20b	0.06677636
226	0x3d7b12bd	0.061297167
227	0x3dcd98a1	0.10038877
228	0x3daee789	0.085402556
229	0x3cffc916	0.031223815
230	0x3e272e7a	0.16326323
231	0x3dd6cce5	0.10488299
232	0x3d5b6961	0.053567294
233	0xbdfda328	-0.12384635
234	0x3d869c50	0.06572783
235	0xbc3542cf	-0.011063292
236	0x3db290db	0.08719035
237	0x3d3cf094	0.04612787
238	0x3e25994e	0.16171762
239	0xbc2287e5	-0.009920095
240	0xbe57e6d0	-0.21084142
241	0xbe38ec97	-0.18059002
242	0xbe01a5af	-0.1266086
243	0x3d96405a	0.07336493
244	0x3d88c39a	0.06677933
245	0x3dd86ecc	0.10568008
246	0xbcda7c18	-0.0266705
247	0x3d23bfa2	0.039977677
248	0xbd1f8b28	-0.03895107
249	0xbde18ebd	-0.11013553
250	0xbe162c44	-0.14665323
251	0xbe2363cc	-0.15956038
252	0x3d2ce903	0.042214405
253	0xbccfb9ee	-0.025357213
254	0x3dce9394	0.10086742
255	0x3dacf09e	0.084443316

conv2.bias f4 [8]
0	0x3d717c2a	0.058956303
1	0x3de72bce	0.11287652
2	0x3ef13aae	0.47115082
3	0x3c95c986	0.01828457
4	0x3e85f30b	0.2616199
5	0xbd1c744b	-0.038196843
6	0xbd58e98a	-0.052957095
7	0xbe22ef4e	-0.159116

fc1.weight f4 [81, 200]
0	0xbd3f83e4	-0.04675664
1	0xbdbe78a2	-0.09300353
2	0x3c938887	0.018009437
3	0x3dd142c0	0.1021781
4	0x3cc5ed4e	0.024161007
5	0x3c306902	0.010767223
6	0x3d20febd	0.039305437
7	0xbae46976	-0.0017426449
8	0x3d7fcefa	0.062453248
9	0xbdbbad35	-0.09163896
10	0x3dcc2bca	0.099692896
11	0x3c82648d	0.015917087
12	0xbcc2fa5f	-0.023801027
13	0xbe31a02f	-0.17346261
14	0xbdf796b4	-0.12089291
15	0x3c39b38e	0.011334313
16	0xbd843785	-0.06455902
17	0xbd404bc3	-0.046947252
18	0x3bde73b1	0.006788694
19	0xbcdb349a	-0.02675848
20	0x3d3259c7	0.04354265
21	0x3de51180	0.111849785
22	0x3d35fadf	0.044428702
23	0x3d3d3791	0.04619557
24	0xbdbca6ac	-0.09211478
25	0xbc453576	-0.012036672
26	0xbd8e1373	-0.069373034
27	0xbc6d0514	-0.014466543
28	0xbdfc7b1a	-0.12328167
29	0xbd0ca165	-0.034333605
30	0xbd1ff12e	-0.039048366
31	0xbc3b1beb	-0.01142023
32	0x3be8ffaf	0.007110558
33	0xbca6edd9	-0.020377086
34	0xbdfb0769	-0.12257273
35	0x3d960fc4	0.07327226
36	0x3e03985d	0.1285109
37	0x3dae1891	0.085007794
38	0xbcb70c79	-0.022344815
39	0xbdfbc00e	-0.12292491
40	0x3daf243d	0.08551834
41	0x3e0b8e7a	0.13628569
42	0xbdaaa80c	-0.08332834
43	0xbd991654	-0.07474962
44	0xbc1efc99	-0.009703779
45	0xbb3dec39	-0.002897991
46	0x3d656ac0	0.056010008
47	0xbc2c7338	-0.010525517
48	0xbdb82afb	-0.08992573
49	0xbd715ccb	-0.058926385
50	0x3da04eaf	0.07827508
51	0x3d8cb429	0.068703
52	0x3d420f14	0.04737766
53	0xbdf6af2d	-0.12045131
54	0xbe47c813	-0.19509916
55	0x3da8fd7b	0.082514726
56	0x3df35299	0.11880989
57	0xbd8f0685	-0.069836654
58	0x3d21e1f7	0.039522137
59	0xbc8d4f89	-0.01724984
60	0xbe44ef95	-0.19232018
61	0xbd38b800	-0.04509735
62	0x3d9f6dc4	0.07784608
63	0x3d819ad7	0.063283615
64	0x3cd30755	0.025760332
65	0xbcc78e17	-0.024359746
66	0xbd8a294e	-0.067461595
67	0x3cff0f28	0.031135157
68	0x3d494a6b	0.049143236
69	0x3e235390	0.15949845
70	0x3c0c96fc	0.008580919
71	0xbda9e321	-0.082952745
72	0xbd655a27	-0.05599418
73	0x3d813cdd	0.06310437
74	0x3d3a6bd6	0.045512997
75	0xbde420e2	-0.111390844
76	0x3daccd7c	0.084376305
77	0x3da2b5e5	0.0794485
78	0x3d8bc54e	0.06824742
79	0xbc2db1f0	-0.010601506
80	0xbe1e91e2	-0.15485337
81	0xbda365c5	-0.079783954
82	0xbcb1dd9f	-0.021712122
83	0x3d2ec874	0.042671636
84	0x3cc65d14	0.024214305
85	0x3d1e4049	0.038635526
86	0xbe30be7d	-0.17260166
87	0x3c4bb1e5	0.01243255
88	0x3da8ddf6	0.08245461
89	0x3d958c1d	0.07302115
90	0x3ca083fe	0.019594189
91	0xbd544704	-0.05182554
92	0xbce9bbfa	-0.028532017
93	0x3c8d5880	0.017254114
94	0xbca70edb	-0.020392826
95	0x3e275815	0.16342194
96	0xbd5516fa	-0.052023865
97	0xbe291238	-0.16510856
98	0xbc7c8ced	-0.015414459
99	0x3d42b272	0.04753346
100	0xbcd7bb75	-0.026334504
101	0x3caa39ce	0.020779517
102	0x3c806680	0.015673876
103	0xbd4bfd6b	-0.049802225
104	0xbe047e9a	-0.1293892
105	0x3d8f6a1d	0.070026614
106	0xbde5738e	-0.11203681
107	0x3d34be38	0.04412672
108	0xbcf10664	-0.029421993
109	0xbd414de9	-0.04719344
110	0x3de9faee	0.11424814
111	0x3d42726b	0.0474724
112	0xbdbfcca1	-0.09365202
113	0x3ddc70a0	0.10763669
114	0x3de6f086	0.11276345
115	0xbabbb56d	-0.0014321037
116	0xbdcb60d0	-0.09930575
117	0xbc136cd1	-0.008998112
118	0x3d991b1d	0.074758746
119	0x3d9738d1	0.07383884
120	0xbd012304	-0.031527534
121	0xbddaa779	-0.10676474
122	0xbdac4c62	-0.08413006
123	0xbd20da7d	-0.039270867
124	0x3de10582	0.10987379
125	0x3d7a6ccc	0.061138913
126	0x3c3c85fc	0.011506554
127	0x3b53209f	0.0032215489
128	0x3cf8b1d3	0.03035823
129	0x3cb9714d	0.022637034
130	0xbc444d9b	-0.011981393
131	0xbce23202	-0.027611736
132	0xbd0c7917	-0.034295168
133	0xba464203	-0.0007562937
134	0xbc8b4245	-0.016999373
135	0xbe1625c2	-0.14662841
136	0x3dbaa76e	0.09113966
137	0x3dc01a49	0.093800135
138	0xbcd1ad4d	-0.025595332
139	0xbc73fbf4	-0.014891613
140	0xbc8cd54d	-0.017191553
141	0xbd9ac6ce	-0.0755745
142	0xbc88e342	-0.016709927
143	0xbc23a589	-0.009988197
144	0x3d30924a	0.043108262
145	0x3d3ea64b	0.046545308
146	0x3c61a382	0.013771893
147	0xbb8f8821	-0.0043802415
148	0x3d8abe55	0.06774584
149	0xbdcc4701	-0.099744804
150	0xbd975839	-0.07389874
151	0xbda233ad	-0.079200126
152	0xbda34594	-0.07972255
153	0x3d430aee	0.047617845
154	0x3d8cb542	0.0687051
155	0xbce09b07	-0.027417673
156	0xbe6b7fce	-0.22997972
157	0xbd24cecd	-0.040236283
158	0xbd1d9fe1	-0.03848255
159	0x3d9c9f5e	0.076475844
160	0xbd29d797	-0.041465368
161	0xbd46b4fa	-0.048512436
162	0x3d42ff18	0.047606558
163	0xbd0410c3	-0.032242548
164	0x3d72ac43	0.059246313
165	0xbc80004e	-0.015625145
166	0xbda8aa03	-0.08235552
167	0x3acf8df9	0.0015835158
168	0x3cf4df25	0.02989156
169	0x3bf8ffae	0.007598839
170	0x3d839c74	0.064263254
171	0x3dbf77d4	0.09349027
172	0x3c95dfc5	0.018295178
173	0xbd9441ce	-0.07239114
174	0xbdfb592a	-0.12272866
175	0xbde855a1	-0.113444574
176	0xbd71bc0d	-0.05901723
177	0x3bf13d4f	0.007362045
178	0x3e0b2672	0.13588884
179	0x3e1c55be	0.15267083
180	0xbd0d5d9d	-0.034513105
181	0xbd824cf5	-0.06362335
182	0x3bd57971	0.006514721
183	0x3c835e39	0.01603614
184	0x3e64eab8	0.22355163
185	0x3da4324b	0.08017405
186	0x3b716e50	0.0036839433
187	0xbdf7b127	-0.12094336
188	0xbcdb93b7	-0.026803834
189	0x3b3f6fd0	0.0029210933
190	0x3d3b6e57	0.045759525
191	0xbdd89aba	-0.10576387
192	0xbe2b30ae	-0.16717789
193	0xbd60e5b7	-0.054906573
194	0xbdb46bb8	-0.08809608
195	0x3daa0409	0.08301551
196	0x3cd28287	0.025697006
197	0xbd75f838	-0.060051173
198	0xbe2c8a44	-0.16849619
199	0xbe043222	-0.12909749
200	0xbc53f5eb	-0.012937049
201	0xbbeda738	-0.0072526
202	0xba48f12e	-0.0007665333
203	0xbdbbc820	-0.0916903
204	0xbd352fef	-0.044235166
205	0xbca30bca	-0.019903082
206	0xbdd5c8de	-0.10438703
207	0x3c94cebd	0.018164987
208	0xbddae70b	-0.10688599
209	0xbd335b17	-0.043788042
210	0xbe5ab184	-0.2135678
211	0xbdd76033	-0.105163954
212	0x3bca2c2b	0.006169816
213	0x3b9bf338	0.0047592185
214	0x3d735423	0.05940641
215	0x3e266443	0.16249184
216	0x3e1154de	0.1419253
217	0x3d5524f8	0.05203721
218	0xb85bfdb4	-5.244995e-05
219	0x3dc48bbf	0.09596967
220	0x3d716fdc	0.058944568
221	0x3e007fc5	0.1254874
222	0x3dd19e6b	0.10235294
223	0x3d9629ae	0.073321685
224	0x3e835b95	0.2565581
225	0x3b89ce21	0.0042054807
226	0xbde1b2d0	-0.11020434
227	0x3d5f8a72	0.05457539
228	0x3d97fa6b	0.0742081
229	0x3d8bcd11	0.06826223
230	0xb8a7c32d	-7.999535e-05
231	0xbd578675	-0.052618463
232	0x3dae9272	0.08524026
233	0x3bb47cdb	0.005508048
234	0xbd5401e4	-0.051759616
235	0x3d9ed233	0.07754936
236	0xbe8fc284	-0.2807809
237	0xbe07a1a9	-0.13245262
238	0x3c4c33f6	0.01246356
239	0xbc969dd8	-0.018385813
240	0x3c9de91f	0.0192762
241	0x3d37909b	0.04481564
242	0xbce0d2ab	-0.027444204
243	0x3d59a102	0.053132065
244	0xbd019f2b	-0.031645935
245	0xbd160c27	-0.036632683
246	0x3cf55a25	0.02995021
247	0xbd5afe53	-0.0534652
248	0xbc23779d	-0.0099772485
249	0x3e3e4b57	0.18583427
250	0xbd95a2de	-0.07306455
251	0x3c796853	0.015222627
252	0x3da6c966	0.081438825
253	0x3d93721a	0.071994975
254	0x3e070bb1	0.13188054
255	0x3d978016	0.07397477

fc1.bias f4 [81]
0	0x3e8e6475	0.27811018
1	0x3ec8d24f	0.39222953
2	0x3ec051be	0.37562364
3	0x3e9e1d02	0.30881506
4	0x3ed35c4f	0.41281363
5	0x3eac5ebc	0.33666027
6	0x3e7caa05	0.24674232
7	0x3ea13fb4	0.31493914
8	0x3e8231e0	0.25428677
9	0x3ed190e7	0.40930864
10	0x3eb69acf	0.35664985
11	0x3de1bd12	0.110223904
12	0x3c7af75e	0.015317766
13	0x3e58f39b	0.21186678
14	0xbc7fb5f7	-0.015607349
15	0x3e7aa1bf	0.24475764
16	0x3eb03b01	0.34420016
17	0x3e1cc832	0.15310743
18	0x3e6e548c	0.2327444
19	0x3e209f51	0.15685774
20	0x3e811cc5	0.25217262
21	0x3e974fdb	0.29553112
22	0x3e289f57	0.16467033
23	0x3e7ca13b	0.2467088
24	0x3ea2b15e	0.31775945
25	0xbcecda12	-0.028912578
26	0x3c51d598	0.012807272
27	0x3ecc3748	0.39885926
28	0xbe311a1d	-0.17295118
29	0x3dbca90d	0.092119314
30	0x3e9ef061	0.3104277
31	0xbd4868cb	-0.048928063
32	0x3e244a6a	0.16044012
33	0x3e52b046	0.20575055
34	0x3eafddd8	0.3434894
35	0x3ed148fe	0.40876
36	0x3ef3b8e6	0.47602004
37	0x3e991a92	0.29903084
38	0x3e5659cf	0.20932697
39	0x3f0fce3a	0.5617405
40	0x3dced00b	0.10098275
41	0x3e960170	0.29297972
42	0x3d379842	0.04482294
43	0x3e7d8023	0.24755912
44	0x3e70c565	0.235128
45	0x3e9c119d	0.30482188
46	0x3e11d679	0.14241971
47	0x3ed99dbd	0.42503157
48	0x3dd8e471	0.10590447
49	0x3f0e0276	0.55472505
50	0x3eccfbb4	0.40035784
51	0x3e84f393	0.25967082
52	0x3ea1dfb4	0.31615984
53	0x3ef20984	0.47272885
54	0x3e917140	0.28406715
55	0x3eb19e5e	0.34691137
56	0x3e70d7f2	0.23519877
57	0x3ec3f2f8	0.38271308
58	0x3e4449f6	0.19168839
59	0x3eabbd62	0.33542925
60	0x3f0200b7	0.5078234
61	0xbc2781eb	-0.010223846
62	0x3e92a982	0.2864495
63	0x3ebab211	0.3646398
64	0x3e6669cc	0.22501296
65	0x3edbaa2e	0.42903274
66	0x3e881660	0.2657957
67	0x3f0bff82	0.5468675
68	0x3e38369b	0.1798958
69	0x3e712642	0.2354975
70	0x3dfa460c	0.12220392
71	0x3ee4dc64	0.44699395
72	0x3efe6cde	0.49692434
73	0x3edc2880	0.4299965
74	0x3ddd2f35	0.1080002
75	0x3e0260b4	0.12732202
76	0x3eef14cb	0.4669555
77	0x3ee0352b	0.43790564
78	0x3e3a26ab	0.18178813
79	0x3e5b864d	0.2143795
80	0x3f0ab3b7	0.54180473

fc2.weight f4 [10, 81]
0	0x3e9264ad	0.28592435
1	0xbe794e42	-0.24346259
2	0xbebec5cd	-0.37260285
3	0xbe59b89f	-0.21261834
4	0x3b05daf7	0.0020424703
5	0x3db6d7ca	0.08927877
6	0xbe927c4c	-0.28610456
7	0xbe863fef	-0.26220652
8	0x3d9194b8	0.07108444
9	0xbcf6cffd	-0.030128473
10	0xbeda60a3	-0.42651853
11	0xbd8e85f3	-0.069591425
12	0xbe05b363	-0.13056712
13	0xbee06ef8	-0.43834662
14	0xbe25357d	-0.16133685
15	0xbeecd7a7	-0.4625828
16	0x3e085e75	0.13317282
17	0xbaea8ac4	-0.0017894139
18	0xbe09c60d	-0.13454457
19	0xbc960919	-0.018314885
20	0xbec888ae	-0.39166778
21	0xb9d0028f	-0.00039674758
22	0xbe32983b	-0.17440884
23	0xbe6254ed	-0.22102709
24	0xbf02b19e	-0.5105227
25	0xbe862d6d	-0.26206532
26	0x3c40e3dd	0.011773077
27	0xbd960eb6	-0.07327025
28	0xbc975841	-0.0184747
29	0xbe40ab5f	-0.18815373
30	0xbe996fe9	-0.29968193
31	0xbe101794	-0.14071494
32	0xbd8d8227	-0.0690959
33	0xbe6e0dff	-0.23247527
34	0x3e27a06c	0.1636979
35	0xbeeb310e	-0.45935863
36	0xbec9c221	-0.3940592
37	0xbf08e97f	-0.53481287
38	0x3e1c8c22	0.15287831
39	0xbe2b00c6	-0.16699514
40	0xbdb8c6b9	-0.09022278
41	0xbd5c2226	-0.053743504
42	0x3dce013c	0.10058829
43	0xbe56c275	-0.20972617
44	0x3e4389ff	0.1909561
45	0x3daba656	0.083813354
46	0xbccd04fd	-0.025026793
47	0xbe6ccf2c	-0.23125905
48	0xbe2dfe6f	-0.1699159
49	0x3af71b5a	0.0018852756
50	0x3e136ced	0.1439702
51	0xbd472f65	-0.048629183
52	0xbe2b69d2	-0.16739586
53	0x3c7b9fe4	0.015357945
54	0xbb4e94da	-0.0031521828
55	0x3e42e910	0.19034219
56	0x3d5d4bf1	0.0540275
57	0x3e10bdc9	0.14134897
58	0x3de6b5da	0.11265154
59	0x3e041cbf	0.12901591
60	0x3e163cb9	0.14671601
61	0xbec0707f	-0.37585828
62	0x3dedb357	0.11606472
63	0xbe37aef5	-0.17937835
64	0xbd8d0f91	-0.06887735
65	0xbee9de2d	-0.4567732
66	0xbedeb3ed	-0.43496647
67	0xbeddc3b1	-0.43313363
68	0xbebaeb6a	-0.36507732
69	0x3cce73d1	0.02520171
70	0xbe656a73	-0.22403888
71	0xbf2bef5e	-0.6716212
72	0x3bd4408b	0.0064774207
73	0xbe6e12de	-0.23249385
74	0xbdbf8689	-0.093518324
75	0x3cf80a42	0.030278329
76	0xbdbd3230	-0.09238088
77	0xbdcc4939	-0.099749036
78	0xbedf5332	-0.4361816
79	0x3e39935b	0.18122618
80	0x3d446261	0.047945384
81	0x3bafb879	0.005362567
82	0x3e1b04b0	0.15138507
83	0xbe8f840f	-0.2803044
84	0x3d03cd9d	0.03217851
85	0xbf201683	-0.6253435
86	0xbe92479d	-0.28570262
87	0xbefdaf10	-0.49547625
88	0x3e17525e	0.14777514
89	0xbe938293	-0.28810558
90	0xbe9555cf	-0.2916703
91	0xbeb8b9c7	-0.36079237
92	0xbeb0a0a4	-0.3449756
93	0xbd49b826	-0.049247883
94	0xbde8db82	-0.11369993
95	0xbee46c3c	-0.44613826
96	0x3da7cb5c	0.081930846
97	0x3ba6a486	0.0050855307
98	0x39b08332	0.00033667084
99	0x3dfdb8a2	0.123887315
100	0xbebf5c26	-0.3737499
101	0xbe7ef404	-0.24897772
102	0x3c2f79bc	0.010710176
103	0xbe3366d6	-0.17519698
104	0xbda1aee6	-0.07894687
105	0xbf0989a5	-0.53725654
106	0xbe186a6b	-0.14884345
107	0xbe380a65	-0.17972715
108	0xbf285f11	-0.6577006
109	0xbe80f776	-0.25188798
110	0x3ddf6d30	0.10909498
111	0x3e69b9bd	0.2282476
112	0xbe84ad4e	-0.2591347
113	0xbe716275	-0.23572715
114	0x3eadd8f9	0.339546
115	0x3d214454	0.039371803
116	0xbdc583f5	-0.096443094
117	0x3c5a9e3b	0.013343389
118	0xbec7aa96	-0.38997334
119	0xbef2704f	-0.4735131
120	0x3ea055c5	0.31315437
121	0xbe3bc59d	-0.18337102
122	0x3e0b9ab5	0.13633235
123	0xbe426de1	-0.18987228
124	0xbe92d5df	-0.28678796
125	0xbe296a34	-0.1654442
126	0xbe38c88a	-0.1804525
127	0xbe7997f0	-0.24374366
128	0x3df5444e	0.11975919
129	0xbca96924	-0.020680018
130	0x3ea53746	0.32268733
131	0xbf2752a6	-0.65360487
132	0xbe4f4a8f	-0.20243286
133	0xbe90f273	-0.28309974
134	0xbee35715	-0.44402376
135	0xbdf95570	-0.12174499
136	0xbca7eec3	-0.020499593
137	0xbe5b8531	-0.21437527
138	0x3d9e8312	0.077398434
139	0xbd2073ba	-0.039172865
140	0xbee734a8	-0.4515736
141	0x3e1b5d71	0.15172364
142	0x3e9a8193	0.30176982
143	0xbe543682	-0.20723918
144	0x3d55bdb7	0.05218288
145	0xbe2a958a	-0.16658607
146	0x3e00f754	0.12594348
147	0xbeef7614	-0.46769774
148	0x3e91f412	0.28506523
149	0xbde7bb51	-0.11315025
150	0xbe88e2cc	-0.26735532
151	0xbe9b5b0c	-0.303429
152	0x3c5689bb	0.013094361
153	0xbf1d704d	-0.6149948
154	0x3e59852e	0.2124221
155	0xbe9dbce7	-0.30808184
156	0xbdb1f86f	-0.08689963
157	0xbc71639d	-0.014733222
158	0x3e615828	0.22006285
159	0x3d0071f0	0.03135866
160	0xbe8468c0	-0.25861168
161	0x3e4f4916	0.20242724
162	0xbe54df70	-0.2078836
163	0x3d45c3cc	0.04828243
164	0x3da43912	0.08018698
165	0xbe4f3293	-0.20234136
166	0xbe3ed548	-0.18636048
167	0xbe8be3b4	-0.2732216
168	0xbec1d365	-0.37856594
169	0xbea7dabc	-0.3278407
170	0x3d6f9f3c	0.058501467
171	0x3dca7934	0.09886399
172	0x3dd05839	0.10173077
173	0xbe4c8e49	-0.19976152
174	0x3d8cc9ed	0.06874452
175	0xbdc5e575	-0.09662906
176	0x3e191471	0.14949204
177	0xbe5f5160	-0.21808386
178	0xbea14ea5	-0.31505314
179	0x3d9c3713	0.07627692
180	0x3e01ab44	0.12662989
181	0xbcf72f84	-0.030174024
182	0xbe33d065	-0.17559965
183	0xbdc32706	-0.095289275
184	0x3e3fa0cb	0.18713681
185	0x3cc03be7	0.023466064
186	0xbeb5a5ed	-0.35478154
187	0xbc8d3039	-0.017234908
188	0x3d90ee34	0.07076684
189	0xbe8500e7	-0.2597725
190	0x3a5e3538	0.0008476558
191	0x3d1db924	0.038506642
192	0xbccdd125	-0.025124142
193	0xbd6ad762	-0.05733431
194	0x3d92ab60	0.071615934
195	0xbdf9806f	-0.121827
196	0xbe907dfa	-0.28221112
197	0xbe2650c7	-0.16241752
198	0xbe83b293	-0.2572218
199	0xbde14ef2	-0.11001386
200	0x3e2bba01	0.16770174
201	0xbf27d31a	-0.6555649
202	0x3e333787	0.17501651
203	0xbd7fdc55	-0.062465984
204	0x3cec6d69	0.028860765
205	0x3d5c44c8	0.053776532
206	0x3d5dda64	0.05416335
207	0xbe2785e5	-0.1635967
208	0xbd92eb8e	-0.07173835
209	0xbd46dbf5	-0.04854961
210	0xbdcf054e	-0.10108434
211	0xbe7796e6	-0.24178657
212	0xbe5a1c73	-0.21299915
213	0x3bdaed7c	0.0066811424
214	0x3deb20d9	0.114808746
215	0xbe7826b2	-0.24233511
216	0x3dc2f287	0.09518915
217	0xbee36fb3	-0.44421157
218	0xbe9d109e	-0.3067674
219	0x3d1cb567	0.038258936
220	0x3dacfbd2	0.084464684
221	0xbdd8ab1d	-0.10579512
222	0x3d38d8b6	0.045128547
223	0xbb87bf2b	-0.004142662
224	0xbebc01cd	-0.36720124
225	0x3dc6f894	0.09715381
226	0xbe71670c	-0.23574466
227	0xbd8860bd	-0.06659076
228	0xbe9422d1	-0.28932813
229	0xbef7ce60	-0.4839964
230	0xbe518d12	-0.2046397
231	0xbd1733f0	-0.036914766
232	0xbeac0175	-0.33594862
233	0xbeb6829b	-0.3564652
234	0xbe7d6bbc	-0.24748129
235	0x3e397c02	0.18113711
236	0xbd35c941	-0.044381384
237	0xbe972256	-0.29518384
238	0xbe83dd28	-0.25754666
239	0x3e5df5c4	0.21675783
240	0xbd9f4487	-0.077767424
241	0x3e24dfca	0.16100994
242	0x3c5f22dc	0.013619151
243	0x3d3019cc	0.04299335
244	0x3dbceadc	0.09224483
245	0xbe283ec4	-0.16430193
246	0xbe58bd9a	-0.21166077
247	0xbe0c742b	-0.1371619
248	0xbeb05d4b	-0.34446177
249	0x3de50adb	0.11183711
250	0xbe294d36	-0.1653336
251	0xbcf563ab	-0.029954752
252	0xbea5b5d7	-0.32365295
253	0x3cf8b65f	0.030360399
254	0x3cf61c7e	0.030042883
255	0x3d71dca7	0.05904832

fc2.bias f4 [10]
0	0x3e0fa8f5	0.14029296
1	0x3e4fc5fa	0.20290366
2	0xbe1252aa	-0.14289346
3	0xbe0eaf2c	-0.1393401
4	0x3d27cbac	0.04096572
5	0xbe839862	-0.25702196
6	0x3dea1945	0.11430601
7	0xbdd9a361	-0.10626865
8	0xbcf0a8bd	-0.029377336
9	0x3da726dd	0.081617095
